data.pth (torch, 5809 bytes, 6 tensors)

l1.weight f4 [8, 54]
00000000: a949 1b3f 303e a43d ec77 e23e 8a0e afbd
00000010: 3d3d 25be ea91 323f 97df 933e 68ca d03e
00000020: 166d cd3e 4d1e ed3e e77c a7be beec 443d
00000030: 6cb0 20be cc91 843e 66d1 1fbc bf39 f43c
00000040: fda8 febd 227b 483f 7c48 8dbe aecf abbe
00000050: 91de b13e 8f59 bcbe 413d bdbe b987 eabe
00000060: dd75 633e 5caf 31be 29c5 c3bd 6cca d4be
00000070: a0e3 cfbd b996 b2be dc56 cb3e 7dc7 033e
00000080: 784a 953e 4611 a43e 076f e9bd 666f aa3d
00000090: 8092 23bc 6cc1 a23e d9ec 943e 8bb4 ae3e
000000a0: 2b8e cd3e f832 80be 563c 013e 86aa 22be
000000b0: e45a a23e 648c 3fbe 278b 733f f2dd a93e
000000c0: 2e90 52be 93b0 f6be b0fa fdbd c3a3 9fbe
000000d0: 5f23 b73e 4019 e03e 21a3 123e 1df8 863d
000000e0: 32c8 0a3f 8aa7 ad3e d7da da3e 9843 713f
000000f0: 100f d53e ee0d ca3e f540 123f e25e e23e
00000100: 9c50 853e 1979 a1be d961 28bd d30b b3be
00000110: 7c8b 20bd 9375 6bbe f755 403e 893f 3e3f
00000120: 1cc3 b9be e220 153e d6c3 673c 6565 723e
00000130: 6ef7 1c3e 6846 55be b099 a03e b0e1 413e
00000140: 495b bcbe 9df5 583d 8f55 86bd 9918 60be
00000150: b418 fa3e 05c8 87be 78ee fb3d 5a36 063f
00000160: b527 ca3d 26c2 ddbe 80b9 c6bd c9f0 9e3e
00000170: 8dec c13e 61fb fa3e 9f0c 003f 063a 07bf
00000180: f752 a1be d338 18be f2a2 4c3e 324d eb3d
00000190: 473e c2bd c37a 863d 632b c73d 0c55 05bf
000001a0: ab41 67be 1007 9fbe 1eaf c73e 4895 b83e
000001b0: 1151 253f b8d5 f13e da20 f1be 63af 2fbe
000001c0: 08f9 833d 2c7d 5dbe 5b6a 72bd de35 c0be
000001d0: da6b f0be e652 d3be 0403 e2bd c681 d7bd
000001e0: a99e 223e 4314 003e bf57 3f3e cfb1 06be
000001f0: be18 0f3e bc23 b8bd 994f b13e bccb 0fbe
00000200: fb27 df3e ec80 28be 24ba 0abe a197 29bd
00000210: a35a 54bd 77d2 1fbe 60b7 003f a097 8f3e
00000220: cf4c fc3e a486 4d3e 191f d93d 6fdb bb3e
00000230: 534e 013f 6856 fbbe ff4c dc3e 0c88 12bd
00000240: 09b5 f03e aa13 2abf 279f 3fbe 0321 19be
00000250: cf8e c4bd d47b 083f 57b8 a5bd ea31 843e
00000260: 08cb dcbe a804 853e 17f5 8b3f 65f9 183f
00000270: 5be5 343e 65e1 103f 1030 b33d dcfe 113f
00000280: 38c2 93be 7fc0 aa3e a6f4 f0bc 8307 d8be
00000290: 4991 c53e a364 f03e 9eaa 203f bd9a 2bbf
000002a0: 965a b13e 78b4 593d bbf7 b13e ff8e 543e
000002b0: 727b d33e 60c9 ed3e 4139 303f a767 2e3f
000002c0: 99aa 03be ed88 ca3e 876d 093f bf9a 2bbf
000002d0: 7944 c73e c402 243f f488 d03d 5c24 343f
000002e0: c37c 203f fec9 3d3f e754 fa3e f9cf b53e
000002f0: b4d7 2c3f 93a6 86be 2e59 b23e 432c ccbe
00000300: 1857 d5be 6d6d 0f3f 72e6 cfbd 69c4 de3e
00000310: 5184 a0bc 6fb0 ff3e 7a47 943e e668 e93e
00000320: 9477 993e c961 1c3e c67a 12bf 5c96 e23e
00000330: 1b78 1d3f a449 51be 5d84 213f 6846 44be
00000340: 855c 72be 0dd7 90bc f5f4 053f bf10 3e3f
00000350: d6be 913e a951 0d3f 0c57 4b3e 15f6 cf3e
00000360: b63e 84be 1a3f 283f 6fbd eb3e a9e3 9ebd
00000370: 124b c0bd f2ed 153f 8134 9c3e fe1f ba3e
00000380: f376 053f 22cf bd3e 121b 9abe 3129 89be
00000390: 4f9f 093f 2b28 9fbd ed1c b03e 6fa6 afbe
000003a0: f9a2 ebbd 556e 543f 8130 82be 4219 d3be
000003b0: 16f9 e9bd ea97 cdbe 089c aebe 96f0 eabe
000003c0: fbc2 043e 6fda 88be a673 96be 5073 163f
000003d0: 1638 51bd 8703 ac3e c405 033f fc88 47be
000003e0: 5391 74be 0fce 233f a108 173f 705b b9be
000003f0: eaf0 be3d b8cc 393f 17c1 293e ac2c 9f3e
0.6065927 0.08019674 0.44232118 -0.08547695 -0.16136642 0.697539 0.28881523 0.40779424
0.40122288 0.4631218 -0.3271248 0.048077337 -0.156923 0.25892484 -0.009754514 0.029812692
-0.12434576 0.78312886 -0.27594364 -0.33556885 0.34740117 -0.36787078 -0.36960796 -0.45806673
0.2221293 -0.1735205 -0.0955909 -0.41560686 -0.10150838 -0.34880617 0.39714706 0.12869067
0.29158378 0.3204443 -0.1139813 0.08322029 -0.009983659 0.31788194 0.2908695 0.34122118
0.40147528 -0.25038886 0.12620673 -0.15885362 0.3170997 -0.18705899 0.95134205 0.33177143
-0.20562813 -0.4818159 -0.124013305 -0.31179628 0.35769174 0.43769264 0.14320041 0.065902926
0.54211724 0.33916885 0.42745087 0.94243765 0.41613054 0.39463753 0.57130367 0.44213015
0.26038063 -0.31537703 -0.04110894 -0.3496996 -0.039195523 -0.2299407 0.18782793 0.74315697
-0.3628167 0.14563325 0.014145812 0.23671491 0.15328762 -0.20827639 0.31367254 0.18933749
-0.36788395 0.05296861 -0.06559288 -0.21884383 0.48846972 -0.2651979 0.12301344 0.52426684
0.09870855 -0.43312186 -0.0970335 0.3104308 0.37875786 0.49019912 0.5001926 -0.5282291
-0.3150861 -0.14865427 0.19984034 0.11489333 -0.09484535 0.06566384 0.09725072 -0.52082896
-0.22583644 -0.31060076 0.3900079 0.36051393 0.6457682 0.47233367 -0.47095376 -0.17156748
0.06443983 -0.2162978 -0.05918346 -0.37541097 -0.46957284 -0.41274184 -0.110357314 -0.10522799
0.15880837 0.12507729 0.18685816 -0.13153766 0.13974282 -0.08991191 0.3463104 -0.14042562
0.4358519 -0.1645543 -0.1354757 -0.04140437 -0.05184425 -0.1560763 0.5027981 0.28045368
0.4927735 0.20070893 0.106016345 0.36690852 0.5051014 -0.4908936 0.43027493 -0.035774276
0.4701312 -0.66436255 -0.18713056 -0.14953999 -0.09597551 0.53313947 -0.08091801 0.2581933
-0.4312365 0.25980115 1.093417 0.59755546 0.17665617 0.56593925 0.087494016 0.5702951
-0.28859115 0.33349988 -0.029413532 -0.4219323 0.38587406 0.4695178 0.6276034 -0.67032987
0.34639424 0.053150624 0.34759316 0.20757674 0.4130512 0.464427 0.6883736 0.6812691
-0.12858047 0.3955759 0.5368275 -0.67033 0.38919428 0.6406672 0.10182372 0.7036798
0.6269037 0.7413634 0.488929 0.35510233 0.67516637 -0.2629896 0.34833664 -0.3987752
-0.4166801 0.56026345 -0.10151376 0.43509224 -0.019594343 0.49939296 0.28960782 0.45587844
0.29974043 0.15271677 -0.5721859 0.4425534 0.6151139 -0.20438248 0.63092595 -0.19167483
-0.23668106 -0.01768067 0.523269 0.742443 0.2846591 0.5520273 0.19857424 0.40617433
-0.25829095 0.65721285 0.46042964 -0.077582665 -0.093893185 0.585662 0.30508807 0.36352533
0.5213463 0.37072092 -0.30098778 -0.2678924 0.5375871 -0.07771333 0.3439707 -0.34306666
-0.11505694 0.82980853 -0.2542763 -0.41230208 -0.114244625 -0.40154964 -0.34103417 -0.45886678
0.12965004 -0.26729152 -0.29385108 0.587697 -0.05107888 0.3359644 0.5118067 -0.19485849
-0.23883562 0.63986295 0.5899754 -0.36202574 0.093232945 0.72578 0.16577564 0.3108877

l1.bias f4 [8]
00000000: 8566 f03e c839 703f a366 3c3f 29a1 2b3f
00000010: 4693 073f ae38 a83e 5d64 553f e439 e63e
0.46953216 0.9383817 0.7359411 0.67042786 0.52959096 0.32855743 0.8335627 0.44966042

l2.weight f4 [8, 8]
00000000: 7c0a b53f a8b8 573f 1ccc 433f 4caa 09bf
00000010: 9d31 bf3f 38ca a33f ae33 4ebf 09f7 2bbf
00000020: 3078 773f c4a1 953f 96c3 2d3f 7ef5 4d3e
00000030: 1daf f7be 0653 49bf c038 7d3f 7b0d 92be
00000040: 5e44 0f3f 9293 7c3f 928f d73d a805 11bf
00000050: 0e66 763f 2869 003e 4d3d 52bf e0ac 2a3f
00000060: 64d7 9f3f 3018 6d3f b13e dfbe 1572 c83e
00000070: ebc0 fc3b cdf9 a0be d5a7 cfbd 09b3 753f
00000080: f507 a7be b0aa 8ebe 7700 6d3d cba8 f63d
00000090: 89b5 073e 6ce0 0ebe bcb8 afbe 6cb2 81bd
000000a0: 6495 8bbf b15b e23e 089e 8dbd 6730 853f
000000b0: f1d6 873f 1514 af3e c419 503f 97e1 89bd
000000c0: 8790 043f 92c6 ddbe c757 a63f ec0d 443f
000000d0: 988e 44bf f428 273f d9bf 6abf cce2 b63e
000000e0: 2daf d53d 0925 883e 0fd0 99be 28f3 7c3f
000000f0: dfc1 c23e afa8 5c3d 86fb 79bf 5362 803f
1.4143825 0.8426614 0.7648332 -0.5377548 1.4937016 1.2796087 -0.80547607 -0.6717382
0.96667767 1.1689992 0.67876565 0.20113179 -0.48375788 -0.7864231 0.9891472 -0.2852591
0.55963695 0.98662674 0.10525431 -0.56649256 0.96249473 0.12540114 -0.8212479 0.66670036
1.2487607 0.9261503 -0.43602517 0.39149538 0.0077134273 -0.31440583 -0.10139433 0.9597631
-0.32623258 -0.278646 0.05786177 0.120439135 0.13252844 -0.13952798 -0.3432063 -0.063328594
-1.0904965 0.4421058 -0.06914908 1.0405396 1.061247 0.3419501 0.81289315 -0.06732481
0.5178303 -0.4331556 1.2995538 0.76583743 -0.7678008 0.65296865 -0.91698986 0.35719907
0.10433803 0.26590756 -0.3004155 0.98808527 0.38038537 0.053871807 -0.9764942 1.0030006

l2.bias f4 [8]
00000000: 040d be3e 8546 4b3f 4303 013f eba1 123e
00000010: e003 75be cf8c 3f3f 3ab5 093f 0a66 10be
0.37119305 0.7940448 0.503956 0.1431958 -0.2392726 0.7482423 0.53792155 -0.14101425

l3.weight f4 [7, 8]
00000000: 4ea9 67bf 81f0 88bf 4cec e3bd 35f5 9d3e
00000010: 6014 953e 2b6f 20be c5b2 063f 8513 183f
00000020: ceea 1f3f 14f8 95bf 7aeb 0f3f 696c a9bf
00000030: 2909 793e 3fb9 b53e 13d3 8fbe ecf0 0ebf
00000040: 4ac8 153f 38c4 ef3d 29be c63e f485 a13e
00000050: d7db 783e 8a13 0fbe 4065 b8bf 4dd1 d9bf
00000060: 56f3 96bf e35f 553f eb5f 6fbe 667a 8f3d
00000070: 9768 13be 4202 5f3f 7bd8 aabe 3f7b 3cbf
00000080: d18a 4d3e 3a01 24bf 8d5e 92bf 5b6b 75bf
00000090: 0eec 7cbe 6818 e13e 956f 533f 6bb5 a1be
000000a0: 0275 b8bd ac39 eebe 4c12 703e f0f1 183f
000000b0: ee8a af3d 2913 0cbe f483 53bf 5aa7 fc3e
000000c0: cf0d ff3d cda8 5d3e 68f6 9a3d 0bf4 a83d
000000d0: a405 bdbe 1749 8cbf 0f99 6c3f 51db 82bf
-0.90492713 -1.0698396 -0.111290544 0.3085114 0.29117107 -0.15667407 0.5261653 0.59404784
0.6246766 -1.1716332 0.56218684 -1.3236209 0.243199 0.35492894 -0.28090724 -0.5583637
0.5850874 0.11707348 0.38816956 0.3154751 0.24302612 -0.13972297 -1.4405899 -1.7016999
-1.179301 0.83349437 -0.23376434 0.070057675 -0.14395367 0.8711282 -0.33368286 -0.7362556
0.20072486 -0.6406437 -1.1435105 -0.95866936 -0.24699423 0.43963933 0.82592136 -0.31583723
-0.090066925 -0.46528375 0.2344448 0.5974417 0.085714206 -0.13679184 -0.8262322 0.4934643
0.12453806 0.21646424 0.075665295 0.082496725 -0.36918366 -1.0959805 0.9242105 -1.022318

l3.bias f4 [7]
00000000: d8a0 bcbc ca6b b7bd d385 123d dfe4 f53e
00000010: 7eb6 483d 129a 9dbe d25d e0bd
-0.023025915 -0.08956106 0.035772156 0.48026177 0.049002163 -0.3078161 -0.10955395
